…
ensorflow/keras-applications/vgg16/vgg16_weights_tf_dim_ordering_tf_kernels_notop.h5\n58892288/58889256 [==============================] - 2s 0us/step\n58900480/58889256 [==============================] - 2s 0us/step\nModel: \"vgg16\"\n_________________________________________________________________\nLayer (type)                 Output Shape              Param #   \n=================================================================\ninput_1 (InputLayer)         [(None, 224, 224, 3)]     0         \n_________________________________________________________________\nblock1_conv1 (Conv2D)        (None, 224, 224, 64)      1792      \n_________________________________________________________________\nblock1_conv2 (Conv2D)        (None, 224, 224, 64)      36928     \n_________________________________________________________________\nblock1_pool (MaxPooling2D)   (None, 112, 112, 64)      0         \n_________________________________________________________________\nblock2_conv1 (Conv2D)        (None, 112, 112, 128)     73856     \n_________________________________________________________________\nblock2_conv2 (Conv2D)        (None, 112, 112, 128)     147584    \n_________________________________________________________________\nblock2_pool (MaxPooling2D)   (None, 56, 56, 128)       0         \n_________________________________________________________________\nblock3_conv1 (Conv2D)        (None, 56, 56, 256)       295168    \n_________________________________________________________________\nblock3_conv2 (Conv2D)        (None, 56, 56, 256)       590080    \n_________________________________________________________________\nblock3_conv3 (Conv2D)        (None, 56, 56, 256)       590080    \n_________________________________________________________________\nblock3_pool (MaxPooling2D)   (None, 28, 28, 256)       0         \n_________________________________________________________________\nblock4_conv1 (Conv2D)        (None, 28, 28, 512)       1180160   \n_________________________________________________________________\nblock4_conv2 (Conv2D)        (None, 28, 28, 512)       2359808   \n_________________________________________________________________\nblock4_conv3 (Conv2D)        (None, 28, 28, 512)       2359808   \n_________________________________________________________________\nblock4_pool (MaxPooling2D)   (None, 14, 14, 512)       0         \n_________________________________________________________________\nblock5_conv1 (Conv2D)        (None, 14, 14, 512)       2359808   \n_________________________________________________________________\nblock5_conv2 (Conv2D)        (None, 14, 14, 512)       2359808   \n_________________________________________________________________\nblock5_conv3 (Conv2D)        (None, 14, 14, 512)       2359808   \n_________________________________________________________________\nblock5_pool (MaxPooling2D)   (None, 7, 7, 512)         0         \n=================================================================\nTotal params: 14,714,688\nTrainable params: 0\nNon-trainable params: 14,714,688\n_________________________________________________________________\n","output_type":"stream"}]},{"cell_type":"code","source":"vgg16.output","metadata":{"execution":{"iopub.status.busy":"2024-02-29T15:25:02.046428Z","iopub.execute_input":"2024
…
e":"2024-02-29T15:25:07.740969Z","shell.execute_reply.started":"2024-02-29T15:25:07.726286Z","shell.execute_reply":"2024-02-29T15:25:07.739973Z"},"trusted":true},"execution_count":6,"outputs":[{"name":"stdout","text":"Model: \"model\"\n_________________________________________________________________\nLayer (type)                 Output Shape              Param #   \n=================================================================\ninput_1 (InputLayer)         [(None, 224, 224, 3)]     0         \n_________________________________________________________________\nblock1_conv1 (Conv2D)        (None, 224, 224, 64)      1792      \n_________________________________________________________________\nblock1_conv2 (Conv2D)        (None, 224, 224, 64)      36928     \n_________________________________________________________________\nblock1_pool (MaxPooling2D)   (None, 112, 112, 64)      0         \n_________________________________________________________________\nblock2_conv1 (Conv2D)        (None, 112, 112, 128)     73856     \n_________________________________________________________________\nblock2_conv2 (Conv2D)        (None, 112, 112, 128)     147584    \n_________________________________________________________________\nblock2_pool (MaxPooling2D)   (None, 56, 56, 128)       0         \n_________________________________________________________________\nblock3_conv1 (Conv2D)        (None, 56, 56, 256)       295168    \n_________________________________________________________________\nblock3_conv2 (Conv2D)        (None, 56, 56, 256)       590080    \n_________________________________________________________________\nblock3_conv3 (Conv2D)        (None, 56, 56, 256)       590080    \n_________________________________________________________________\nblock3_pool (MaxPooling2D)   (None, 28, 28, 256)       0         \n_________________________________________________________________\nblock4_conv1 (Conv2D)        (None, 28, 28, 512)       1180160   \n_________________________________________________________________\nblock4_conv2 (Conv2D)        (None, 28, 28, 512)       2359808   \n_________________________________________________________________\nblock4_conv3 (Conv2D)        (None, 28, 28, 512)       2359808   \n_________________________________________________________________\nblock4_pool (MaxPooling2D)   (None, 14, 14, 512)       0         \n_________________________________________________________________\nblock5_conv1 (Conv2D)        (None, 14, 14, 512)       2359808   \n_________________________________________________________________\nblock5_conv2 (Conv2D)        (None, 14, 14, 512)       2359808   \n_________________________________________________________________\nblock5_conv3 (Conv2D)        (None, 14, 14, 512)       2359808   \n_________________________________________________________________\nblock5_pool (MaxPooling2D)   (None, 7, 7, 512)         0         \n_________________________________________________________________\nflatten (Flatten)            (None, 25088)             0         \n_________________________________________________________________\ndense (Dense)                (None, 58)                1455162   \n=================================================================\nTotal params: 16,169,850\nTrainable params: 1,455,162\nNon-trainable params: 14,714,688\n_________________________________________________________________\n","output_type":"stream"}]},{"cell_type":"code","source":"data_gen = ImageDataGenerator(zoom_range=0.5, shear_range=0.8, horizontal_flip=True, rescale=1/255)","metadata":{"
…
